4D/models/tmp.pth (torch_old, 213040 bytes, 16 tensors)

en1.weight f4 [200, 4]
0	0x3dd33dc8	0.10314518
1	0x3ee6fc5c	0.4511441
2	0xbd44ad60	-0.048016906
3	0x3e652ef8	0.22381198
4	0x3ebbe51e	0.3669824
5	0xbe1fba20	-0.15598345
6	0x3e8fe35c	0.2810315
7	0x3e9e4bc6	0.30917186
8	0x3e2761ec	0.16345948
9	0xbde465b8	-0.11152214
10	0x3eef1220	0.46693516
11	0xbeff0e4c	-0.49815595
12	0xbc78e1c0	-0.015190542
13	0xbe862c08	-0.26205468
14	0xbeed0174	-0.4629017
15	0x3ec35ac2	0.3815518
16	0x3d5201c0	0.0512712
17	0xbe91a136	-0.28443307
18	0x3ec48cb6	0.38388604
19	0x3c0e8540	0.008698761
20	0x3e409358	0.18806207
21	0xbdef2960	-0.116778135
22	0x3e061608	0.13094342
23	0x3ecf01d6	0.40431088
24	0x3edf6e02	0.43638617
25	0x3d8af878	0.06785673
26	0x3dc9f838	0.09861797
27	0x3effe14e	0.4997658
28	0xbd63b920	-0.05559647
29	0xbd379910	-0.044823706
30	0xbef0614e	-0.46949238
31	0x3eb66bf0	0.35629225
32	0x3c790680	0.015199304
33	0xbe495b48	-0.19663727
34	0xbe7f283c	-0.24917692
35	0xbe41f124	-0.18939644
36	0xbef21074	-0.47278178
37	0xbe3ac988	-0.1824094
38	0x3bcf2d80	0.0063225627
39	0xbefc936e	-0.4933123
40	0x3ddd7238	0.10812801
41	0x3ef350f4	0.475227
42	0x3e1a4858	0.1506666
43	0x3ecbd5d0	0.39811563
44	0x3ee6588a	0.44989425
45	0x3eeff1a4	0.46864045
46	0xbeda3a0e	-0.42622417
47	0xbc4d7200	-0.012539387
48	0x3e2b7bec	0.16746491
49	0x3ed4de2e	0.4157576
50	0x3e780f10	0.24224496
51	0xbe31f78c	-0.17379588
52	0x3edbc198	0.42921138
53	0x3eb41036	0.35168618
54	0xbe0f6354	-0.14002734
55	0xbec4dd12	-0.38449913
56	0xbedd70e8	-0.43250203
57	0xbe8dff24	-0.2773372
58	0xbe0a7d4c	-0.1352436
59	0x3d59fe70	0.053221166
60	0xbed9f98c	-0.42573202
61	0xbef66144	-0.48121083
62	0x3e234a58	0.15946329
63	0x3e0c2844	0.13687235
64	0xbc3f6640	-0.011682093
65	0xbdb59630	-0.088665366
66	0xbe91668c	-0.2839855
67	0xbdd97ac8	-0.10619122
68	0x3d9fed78	0.078089654
69	0x3e4410ec	0.1914708
70	0x3eee0e96	0.46495503
71	0x3ed7556e	0.42057365
72	0x3ee3d372	0.44497257
73	0xbecb4e1a	-0.39708024
74	0x3e7a3164	0.24432904
75	0x3ef3eefe	0.47643274
76	0xbedffe8e	-0.43748897
77	0xbe922db6	-0.285505
78	0x3dd972f8	0.10617632
79	0xbe9c8fae	-0.3057837
80	0xbe36f050	-0.1786511
81	0x3e9dafd8	0.3079822
82	0x3eed84d2	0.46390396
83	0x3eb2650a	0.34842712
84	0xbdef4d48	-0.11684662
85	0x3e59c80c	0.21267718
86	0xbeaa74be	-0.33292192
87	0xbedb28aa	-0.42804462
88	0x3e76fa9c	0.24119037
89	0x3d3cd190	0.046098292
90	0xbe897266	-0.26845092
91	0xbedaacf8	-0.4271009
92	0x3eb777ca	0.3583358
93	0x3e2b0240	0.16700077
94	0x3e5edfd4	0.21765071
95	0x3e7ff08c	0.24994105
96	0x3efb5fe4	0.49096596
97	0x3ee2d084	0.4429971
98	0x3ed5dd3c	0.4177035
99	0xbe5fcb7c	-0.21854967
100	0xbe9f33f4	-0.31094325
101	0xbee80f58	-0.45324206
102	0xbe94c27e	-0.29054636
103	0x3e604d24	0.21904427
104	0x3ed7cbd6	0.42147702
105	0x3df242f0	0.118291736
106	0xbe8c6e2c	-0.27427804
107	0xbe2c2918	-0.16812551
108	0x3d38f780	0.04515791
109	0x3ee70fe8	0.45129323
110	0xbeb7fa64	-0.3593322
111	0x3ee8d090	0.4547162
112	0x3ef5633a	0.47927266
113	0xbe57ade4	-0.21062428
114	0xbecac7a4	-0.3960544
115	0xbe7636e0	-0.2404437
116	0x3e8363e6	0.25662154
117	0x3e204e4c	0.15654868
118	0x3c20ff80	0.009826541
119	0x3e9a5a50	0.30147028
120	0xbdd67190	-0.10470879
121	0x3e98a3de	0.2981252
122	0x3d1ff740	0.039054155
123	0x3e57a01c	0.2105717
124	0xbecbf452	-0.3983484
125	0xbe891880	-0.26776505
126	0x3c6aa680	0.014321923
127	0x3eeeddf6	0.46653718
128	0x3e67f074	0.2265032
129	0x3e945f48	0.28978944
130	0xbe22a0d8	-0.1588167
131	0x3eed67e8	0.46368337
132	0x3e41f954	0.18942767
133	0xbe67b3b8	-0.22627151
134	0x3e406794	0.18789512
135	0xbeeb0e94	-0.4590956
136	0xbe0d6674	-0.13808614
137	0xbde394e0	-0.1111238
138	0x3e05b08c	0.13055629
139	0x3e8bf2bc	0.2733363
140	0xbeaab99c	-0.33344734
141	0xbe4cdc04	-0.20005804
142	0x3ecd8a0a	0.40144378
143	0xbc14bb80	-0.009077907
144	0xbeb8903c	-0.36047542
145	0x3efc96da	0.4933384
146	0x3e7a25a4	0.24428421
147	0x3dde6dc8	0.10860783
148	0x3ef58682	0.47954184
149	0x3db59ff8	0.08868402
150	0xbe6096d8	-0.21932542
151	0xbe80d518	-0.25162578
152	0x3ee26d5c	0.4422406
153	0x3d73df70	0.05953926
154	0xbe0b3bec	-0.13597077
155	0x3e519f10	0.20470834
156	0x3ce39940	0.027783036
157	0xbc9cef40	-0.019157052
158	0x3c9db6e0	0.01925224
159	0xbeff0d36	-0.49814767
160	0xbe779ff4	-0.24182111
161	0xbe6a433c	-0.2287721
162	0xbeec830a	-0.46193725
163	0x3cb9cbc0	0.022680163
164	0xbe8b9a38	-0.27266097
165	0xbe1921c8	-0.14954293
166	0xbed70dc8	-0.42002702
167	0x3d65c990	0.056100428
168	0xbe2d52cc	-0.16926116
169	0x3ead5a32	0.33857876
170	0x3b958b80	0.004563749
171	0xbeae34fc	-0.340248
172	0xbe17681c	-0.14785808
173	0x3ed7783e	0.42083925
174	0x3e4b9b48	0.19883454
175	0x3e063df8	0.13109577
176	0x3eb2edec	0.34947145
177	0xbefd152c	-0.49430215
178	0x3e29266c	0.16518563
179	0x3eb9b3a4	0.36269867
180	0x3ec8bbe6	0.39205855
181	0xbebbd3c2	-0.36684996
182	0x3ea22ab4	0.31673205
183	0xbe40ae88	-0.18816578
184	0x3d9ec8a0	0.0775311
185	0xbe3e3eb8	-0.18578613
186	0xbecda122	-0.40161997
187	0x3e048ccc	0.12944335
188	0xbdcd0868	-0.10011369
189	0xbe071b84	-0.1319409
190	0xbed206fc	-0.41020954
191	0xbe917fbc	-0.28417766
192	0xbebdcde8	-0.37071157
193	0xbeab2680	-0.3342781
194	0xbe8022c0	-0.25026512
195	0xbe1629b4	-0.14664346
196	0xbe2cca74	-0.16874105
197	0x3e426d18	0.18986928
198	0x3ec89558	0.3917644
199	0x3e3552e4	0.17707402
200	0xbee5c09e	-0.44873518
201	0xbe427b38	-0.18992317
202	0x3dd40e38	0.103542745
203	0x3e85b84e	0.26117176
204	0xbd973f50	-0.07385123
205	0xbeca419c	-0.3950318
206	0xbeba9a46	-0.36445826
207	0xbeb98448	-0.36233735
208	0x3e3a7f0c	0.18212527
209	0xbef9042e	-0.48636
210	0x3ed85f98	0.42260432
211	0x3e6e3aa4	0.23264557
212	0x3e8a0f8e	0.26964992
213	0x3eec1610	0.46110582
214	0x3e2f9d70	0.17149901
215	0x3e60ed64	0.21965557
216	0xbeec9b74	-0.4621235
217	0x3d5cdd60	0.053922057
218	0xbea4c8de	-0.321845
219	0x3e4befec	0.19915742
220	0xbee223ce	-0.44167942
221	0x3e05c074	0.13061696
222	0xbd56b0c0	-0.052414656
223	0x3eecd7da	0.46258432
224	0x3e0ba5e0	0.13637495
225	0x3ed3b024	0.41345322
226	0x3de99ff8	0.11407465
227	0x3ea5a5f2	0.3235317
228	0xbede4522	-0.4341212
229	0x3d8bbba8	0.06822902
230	0xbce7d7e0	-0.02830118
231	0xbe685478	-0.22688472
232	0x3d9d8118	0.07690638
233	0x3ece2d6a	0.40269023
234	0x3c5e90c0	0.013584316
235	0xbe805ebc	-0.25072277
236	0x3e311d2c	0.17296284
237	0xbeb2e9ba	-0.34943944
238	0xbea7c0aa	-0.3276418
239	0xbdcfbca8	-0.10143405
240	0xbe8a7d3a	-0.27048665
241	0x3e6b19ac	0.22959012
242	0xbe3371cc	-0.17523879
243	0x3ee61188	0.4493525
244	0x3e71dc14	0.2361911
245	0x3ea5278c	0.32256734
246	0xbeb4f88a	-0.3534587
247	0x3e474e64	0.19463497
248	0xbeede0d4	-0.46460593
249	0x3ec666b8	0.38750243
250	0x3ec1e4d0	0.37869883
251	0x3e89c234	0.26905978
252	0xbed22720	-0.41045475
253	0xbeec0888	-0.4610026
254	0xbea589c6	-0.32331675
255	0xbe745e70	-0.2386415

en1.bias f4 [200]
0	0xbdbd7590	-0.09250939
1	0x3d439ec0	0.047758818
2	0x3ec37b7a	0.38180143
3	0xbc78ed80	-0.015193343
4	0x3eb1e1de	0.34742635
5	0xbea4744e	-0.32119983
6	0xbef7a726	-0.48369712
7	0x3e73997c	0.23789018
8	0xbee27aa4	-0.44234192
9	0x3ecf160a	0.40446502
10	0xbef0d4dc	-0.470374
11	0x3e8939a8	0.268018
12	0x3c92f060	0.017936885
13	0x3ea32dfe	0.31871027
14	0xbe831e88	-0.2560923
15	0x3e66c418	0.22535741
16	0xbe95b978	-0.29243064
17	0x3da61550	0.08109534
18	0x3e49e588	0.19716465
19	0x3e9d26ec	0.30693758
20	0x3eddbd80	0.4330864
21	0xbefa6ace	-0.4890961
22	0x3eeaade6	0.458358
23	0xbe9ad47e	-0.30240244
24	0x3e983040	0.29724312
25	0x3e19b6a0	0.15011072
26	0xbebe9e3a	-0.37230092
27	0x3d454b30	0.048167408
28	0x3c9a4ac0	0.018834472
29	0x3e874952	0.26423126
30	0x3ee72508	0.4514544
31	0xbe1a5ccc	-0.15074462
32	0xbe4d0660	-0.20021963
33	0x3e76cd3c	0.24101728
34	0xbef3af30	-0.47594595
35	0xbd6b92a0	-0.05751288
36	0xbe8ae0a4	-0.27124512
37	0xbc6b3280	-0.014355302
38	0x3de046a8	0.109509766
39	0x3e0f6b88	0.14005864
40	0xbe40f654	-0.18843967
41	0x3eb911a2	0.36146265
42	0xbe2061dc	-0.1566233
43	0xbd8bc568	-0.06824762
44	0x3efcf86a	0.49408275
45	0x3e839ffc	0.25707996
46	0x3ef986ba	0.487356
47	0x3e4faef4	0.20281583
48	0xbd151d10	-0.03640467
49	0xbcbb8580	-0.022890806
50	0xbe8302d6	-0.255881
51	0x3e4c7100	0.19964981
52	0xbe510418	-0.20411718
53	0x3d0ce050	0.03439361
54	0x3ec29638	0.38005233
55	0x3e8e565e	0.27800268
56	0x3ed54f92	0.4166227
57	0x3c7d8ec0	0.015475929
58	0x3d972578	0.073801935
59	0xbeaf9a5a	-0.34297448
60	0x3e9c0eca	0.30480033
61	0x3ee1b810	0.4408574
62	0xbee016e0	-0.43767452
63	0x3d292310	0.041293204
64	0x3d803580	0.06260204
65	0x3e295114	0.16534835
66	0x3e290b94	0.16508323
67	0x3ed19df6	0.40940827
68	0xbefc1fb0	-0.49242926
69	0xbcff7fa0	-0.031188786
70	0xbe085430	-0.13313365
71	0x3d506ce0	0.05088508
72	0xbefb21a2	-0.49049097
73	0xbebf1c02	-0.37326056
74	0x3efbf7c0	0.49212456
75	0x3eeef124	0.4666835
76	0x3de63b18	0.1124174
77	0xbda055a8	-0.07828838
78	0x3edff6ea	0.43743068
79	0x3d118350	0.03552562
80	0xbbca4480	-0.0061727166
81	0xbdf3f3c8	-0.11911732
82	0x3efaedbe	0.49009508
83	0x3ea8d6d0	0.3297639
84	0x3ea57a92	0.32320076
85	0xbe6dcd04	-0.23222739
86	0x3d5c64d0	0.05380708
87	0xbeda23ae	-0.42605346
88	0xbe2593e0	-0.16169691
89	0x3c0fa8c0	0.0087682605
90	0xbe77685c	-0.24160904
91	0xbd8a8eb8	-0.06765503
92	0x3e5a7c4c	0.21336478
93	0x3e83ae00	0.2571869
94	0x3ee94ee4	0.45568
95	0x3de992b0	0.114049315
96	0x3d2fe070	0.04293865
97	0xbd5f2790	-0.05448109
98	0xbee13402	-0.4398499
99	0x3ed305a0	0.4121523
100	0x3e009084	0.12555128
101	0xbed4431a	-0.41457444
102	0x3ede21a2	0.43385035
103	0xbd947968	-0.07249719
104	0xbec7f764	-0.39055932
105	0x3cbde600	0.023180962
106	0x3e9f3018	0.3109138
107	0xbddb88e8	-0.10719472
108	0x3dde9228	0.10867721
109	0xbdc52ad8	-0.096273124
110	0x3b4f6000	0.0031642914
111	0x3ef86ea2	0.48521906
112	0x3ef51ff2	0.47875935
113	0x3e21885c	0.15774673
114	0x3e093f20	0.13402987
115	0x3e4b7a28	0.19870818
116	0x3db60328	0.08887321
117	0xbee12d10	-0.43979692
118	0xbed9bc6a	-0.4252656
119	0x3eb7da3c	0.35908687
120	0xbe9ef71c	-0.31047904
121	0x3eb28584	0.3486749
122	0x3c060340	0.008179486
123	0x3e0eefa4	0.13958603
124	0x3e3128e0	0.17300749
125	0xbe8156a4	-0.25261414
126	0xbb532800	-0.0032219887
127	0x3eb5565c	0.3541745
128	0x3e9e1134	0.308725
129	0x3ef69faa	0.4816869
130	0xbe234404	-0.15943915
131	0x3eed2260	0.4631529
132	0xbedf9f24	-0.43676102
133	0xbed5f178	-0.4178579
134	0x3ebd1fe4	0.36938393
135	0x3e869084	0.26282132
136	0x3e99034a	0.29885322
137	0x3e00651c	0.1253857
138	0xbe8eb81c	-0.2787484
139	0x3ebf576a	0.3737138
140	0x3eb7f8b6	0.3593194
141	0x3e2a89c0	0.1665411
142	0x3ef78002	0.4833985
143	0xbed68b7c	-0.41903293
144	0x3ec2317e	0.37928385
145	0x3ea9d8ba	0.33173162
146	0x3e9cac2a	0.306001
147	0x3e7b627c	0.24549288
148	0x3cae33a0	0.021264851
149	0x3eaa466c	0.33256853
150	0xbe9f9e6c	-0.31175554
151	0x3e9e78ee	0.30951637
152	0x3ee8c336	0.45461434
153	0x3ec3916c	0.38196886
154	0x3cf3e680	0.029772997
155	0xbe9bea0a	-0.30451995
156	0x3ea094d4	0.31363547
157	0x3ed665a4	0.4187442
158	0x3ecd8cf6	0.40146607
159	0x3ed5070e	0.41606945
160	0xbe7bc00c	-0.24584979
161	0x3eaea98c	0.3411373
162	0xbe6f18e8	-0.23349345
163	0x3e1a7b8c	0.15086192
164	0x3ec079a2	0.37592798
165	0x3ecef598	0.40421748
166	0x3e343000	0.17596436
167	0x3ee04966	0.43806
168	0x3e39aa9c	0.18131489
169	0xbeb824e6	-0.3596565
170	0xbea3f33e	-0.32021517
171	0x3eed4256	0.46339673
172	0xbd0ac230	-0.033876598
173	0x3e3af1ac	0.18256253
174	0xbe675dac	-0.22594327
175	0xbe3aa764	-0.18227917
176	0x3ec9a3a0	0.39382648
177	0xbee39cce	-0.4445557
178	0x3e27a7e8	0.16372645
179	0xbec125a2	-0.37724024
180	0x3ef51bd4	0.47872794
181	0x3ed24fa6	0.41076392
182	0x3ddd0bc0	0.10793257
183	0x3e14a3d0	0.14515615
184	0x3e2aaee4	0.16668278
185	0x3dc826e0	0.0977304
186	0x3e11928c	0.1421606
187	0x3ed235ec	0.41056764
188	0x3e62a700	0.22134018
189	0x3ee667c4	0.45001042
190	0x3ebeadba	0.37241918
191	0xbc97c3e0	-0.018526018
192	0x3e857aa2	0.26070124
193	0xbee3105c	-0.4434842
194	0x3dcd5258	0.100254714
195	0xbe9f376e	-0.31096977
196	0x3ec87ea4	0.3915912
197	0x3c97eee0	0.018546522
198	0xbd4aec10	-0.049541533
199	0x3ddfca48	0.10927254

en2.weight f4 [100, 200]
0	0xbd8fa10c	-0.07013139
1	0x3d6ec2ba	0.058291174
2	0xbd033f3b	-0.032042723
3	0xbd3034ef	-0.04301923
4	0xbd8e7080	-0.069550514
5	0x3d353602	0.04424096
6	0x3d69a8e6	0.05704584
7	0xbc30f1c0	-0.010799825
8	0xbc9334de	-0.017969545
9	0xbd125376	-0.035724126
10	0x3d51b06a	0.051193632
11	0x3d22ecb8	0.039776534
12	0x37154000	8.895993e-06
13	0xbd2b0cf1	-0.04176039
14	0x3d546f88	0.051864177
15	0xbcc613b6	-0.02417932
16	0x3c00bce0	0.007857531
17	0x3d8079ff	0.06273269
18	0x3cdec14c	0.02719178
19	0x3d74d726	0.059775494
20	0x3d600e32	0.054701038
21	0x3d584faa	0.05281035
22	0xbd5735be	-0.052541487
23	0xbd8b149f	-0.067910425
24	0x3d570622	0.052496083
25	0x3d7401a2	0.05957187
26	0x3d268496	0.040653788
27	0x39fc1d00	0.00048086792
28	0x3c468e08	0.012118824
29	0x3c460570	0.012086257
30	0x3c33ed60	0.010981888
31	0xbd837a03	-0.06419756
32	0x3d55fe10	0.052244246
33	0x3d90b151	0.070650704
34	0x3d0b721c	0.03404437
35	0x3bf06740	0.007336527
36	0xbd504ee2	-0.05085648
37	0xbd4c55c2	-0.049886473
38	0x3d15e1c4	0.03659226
39	0x3ce9c308	0.028535381
40	0xbd4a3c88	-0.049374133
41	0x3d8cac55	0.06868807
42	0x3d431b02	0.04763318
43	0xbd575bd2	-0.0525778
44	0x3b232960	0.0024896488
45	0x3c1ac048	0.0094452575
46	0x3d0f4020	0.034973264
47	0x3d69e78a	0.05710558
48	0xbd6f6b29	-0.058451805
49	0x3d369468	0.044575125
50	0xbd8e4eca	-0.069486216
51	0x3ce87070	0.028373927
52	0xbd61d510	-0.055134833
53	0xbd2d93fb	-0.042377453
54	0xbd356e36	-0.04429456
55	0xbd72e058	-0.059295982
56	0xbc7ebf68	-0.0155485645
57	0xbd6b0094	-0.0573736
58	0xbc7ed028	-0.015552558
59	0x3d8ae54d	0.06782017
60	0xbd7451d3	-0.059648346
61	0x3b31cd80	0.0027130544
62	0x3c9fe1b8	0.01951681
63	0xbc84a0c6	-0.016189944
64	0xbc6de024	-0.014518771
65	0x3d6092de	0.054827563
66	0xbcfebfd4	-0.03109733
67	0x3d041108	0.032242805
68	0x3a51e600	0.000800699
69	0x3d367b70	0.044551313
70	0x3c73f1f8	0.014889233
71	0x3d082d24	0.033246174
72	0x3d01539a	0.03157387
73	0x3d5bc5c0	0.053655386
74	0x3d61a71a	0.055091
75	0x3d475d64	0.04867305
76	0x3ceeae7c	0.029135935
77	0xbd8fe1b1	-0.07025469
78	0x3d506086	0.050873302
79	0xbd1862c2	-0.037203558
80	0x3bcf7bc0	0.006331891
81	0xbd0b9d35	-0.03408547
82	0xbb5b3220	-0.0033446625
83	0xbd6374de	-0.055531375
84	0x3d50c856	0.050972305
85	0x3c85fd24	0.016356058
86	0x3cb17438	0.021661863
87	0xbcdb7466	-0.026788902
88	0xbd0e6841	-0.034767393
89	0xbd03aafc	-0.032145485
90	0xbbe09230	-0.0068533644
91	0x3d0c0318	0.034182638
92	0x3d49a652	0.04923088
93	0xbd77bc2e	-0.060482197
94	0x3cfe776c	0.031062804
95	0xbd900f80	-0.070342064
96	0xbd9007b2	-0.07032718
97	0x3d87203d	0.06597946
98	0xbd2778b8	-0.04088661
99	0x3c99854c	0.018740319
100	0x3d357f3a	0.044310786
101	0xbd28532e	-0.04109495
102	0xbd180bf3	-0.03712077
103	0xbc87faa8	-0.016599014
104	0xbd19c8ef	-0.03754514
105	0x3d09a962	0.0336088
106	0xbbab65e0	-0.0052306503
107	0xbc82936e	-0.01593944
108	0x3914da00	0.00014195591
109	0x3b2e89c0	0.0026632398
110	0x3bb5b580	0.005545318
111	0x3d42f908	0.047600776
112	0xbd8329cd	-0.06404457
113	0xbd308098	-0.043091387
114	0xbcd44474	-0.025911547
115	0xbd8dfc2b	-0.06932863
116	0xbc9acb18	-0.01889567
117	0x3d8fa557	0.07013958
118	0xbcb8230c	-0.02247765
119	0x3cb1a7c8	0.02168645
120	0xbcd3c85a	-0.025852371
121	0x3d0d8142	0.034547098
122	0xba30b880	-0.000674136
123	0x3c8144f4	0.01577995
124	0xbcae8f2c	-0.021308504
125	0xbd89d843	-0.06730702
126	0x3d13fbe0	0.03612888
127	0x3cddb6c8	0.027064696
128	0x3c9d0fd8	0.019172594
129	0x3d0c735c	0.034289703
130	0xbd7793b3	-0.06044359
131	0xbca9a888	-0.020710245
132	0x3c232420	0.009957343
133	0x39506e00	0.00019877404
134	0xbd52bbc5	-0.051448602
135	0x3ceda0e4	0.029007383
136	0xbbfa68d0	-0.007641889
137	0x3d764e0a	0.060133018
138	0xbd7ba82d	-0.06143968
139	0xbd578e9e	-0.052626245
140	0x3ceed014	0.029151954
141	0x3d8064fb	0.062692605
142	0xbd83b753	-0.06431451
143	0x3d638cb2	0.0555541
144	0xbd3201d6	-0.043458782
145	0xbd5c3212	-0.05375869
146	0xbd77065e	-0.060308807
147	0xbc8ba55c	-0.017046623
148	0x3d445408	0.0479317
149	0xbd6ed0f3	-0.05830474
150	0x3ba6fd90	0.005096145
151	0xbd3c7f96	-0.046020113
152	0x3d8671f5	0.06564704
153	0x3d576160	0.0525831
154	0xbd595f3d	-0.053069342
155	0x3caa6e90	0.020804673
156	0xbd34539a	-0.04402504
157	0xb9937300	-0.00028123707
158	0xbc92691e	-0.01787239
159	0xbd0fe4e1	-0.035130385
160	0x3d5920fe	0.05300998
161	0xbd12ab44	-0.035807863
162	0xbc97bad0	-0.018521696
163	0xbc6f16f4	-0.014592875
164	0x3b8acc80	0.004235804
165	0xbd33e498	-0.043919176
166	0xbd26c840	-0.040718317
167	0xbcafda78	-0.021466479
168	0x3a5cf800	0.0008429289
169	0xbc5e0840	-0.013551772
170	0xbd4ab9a5	-0.04949345
171	0x3b24b0e0	0.002512984
172	0x3bf86f80	0.007581651
173	0x3c877364	0.016534515
174	0xbd227b8c	-0.039668605
175	0x3d82058f	0.063487165
176	0x3c9c1658	0.019053623
177	0x3d502494	0.050816134
178	0x3bd0da60	0.0063736886
179	0xbd34d34c	-0.04414682
180	0x3d1d7964	0.038445845
181	0x3d8026ff	0.06257438
182	0x3d7c4e62	0.06159819
183	0xb8906400	-6.8850815e-05
184	0xbd29f65e	-0.04149472
185	0xb9d36e00	-0.00040327013
186	0x3a686380	0.00088649243
187	0x3d12aaf4	0.035807565
188	0x3d1253ee	0.035724573
189	0x3cde9028	0.027168348
190	0x3d16268c	0.036657855
191	0x3c47f528	0.012204446
192	0xbd093609	-0.033498798
193	0x3d336bc8	0.04380396
194	0x3d0b4aa0	0.034006715
195	0x3d24b8ec	0.040215418
196	0x3d3c23a2	0.04593242
197	0x3d62f3f6	0.05540844
198	0xbd8c105c	-0.06839058
199	0x3d53e77e	0.05173444
200	0xbd6e2cf6	-0.058148347
201	0x3c2032b8	0.009777717
202	0x3d887a03	0.06663897
203	0x3d1f49d4	0.038888767
204	0x3c689d58	0.01419767
205	0x3c6e9400	0.014561653
206	0xbd1daf33	-0.03849716
207	0x3c1423d8	0.009041749
208	0x3d6d0932	0.057870097
209	0xbd88764e	-0.0666319
210	0x3b724000	0.0036964417
211	0xbd07ec34	-0.033184245
212	0x3d0715b8	0.032979697
213	0x3d8a5273	0.06754007
214	0x3bd14340	0.0063861907
215	0xbcf1647c	-0.02946686
216	0x3d81c57d	0.06336496
217	0x3c543128	0.012951173
218	0x3c019ac8	0.007910438
219	0x3b5f0840	0.0034032017
220	0xbd83d6ba	-0.0643744
221	0xbce5a2f8	-0.028031811
222	0xbc52e3ac	-0.012871664
223	0x3d350166	0.044190787
224	0xbd602e8a	-0.054731883
225	0xbd105cac	-0.03524463
226	0xbc4d8660	-0.0125442445
227	0xbd822aa1	-0.06355787
228	0xbd032ebf	-0.032027002
229	0xbd2feb84	-0.042949215
230	0xbd651996	-0.055932604
231	0x3d086a18	0.033304304
232	0x3ccd99a8	0.025097683
233	0xbd8c9df4	-0.06866065
234	0x3c9ff4dc	0.019525938
235	0xbbfb5cf0	-0.007670991
236	0x3c051e88	0.008124955
237	0xbcb91a60	-0.022595584
238	0xbcc7caae	-0.024388637
239	0xbce35c2c	-0.027753912
240	0xbca6a8d8	-0.020344183
241	0xbd08130d	-0.033221293
242	0x3cf5ad60	0.029989898
243	0xbd5e79a2	-0.054315217
244	0xbc41ebd8	-0.011836015
245	0x3d81aef7	0.063322
246	0x3ce30324	0.027711459
247	0xbd02c141	-0.031922583
248	0xbc9aab4c	-0.018880509
249	0x3c97f894	0.018551148
250	0x3d715b92	0.05892522
251	0x3cfc2720	0.030780375
252	0x3d326df6	0.0435619
253	0xbc992ace	-0.018697169
254	0x3c1692d8	0.009190284
255	0xbd332944	-0.043740526

en2.bias f4 [100]
0	0xbce5349c	-0.027979188
1	0x3d26f290	0.04075867
2	0xbc164c14	-0.009173412
3	0x3d8b21bd	0.067935444
4	0xbd14c106	-0.036316894
5	0xbd866270	-0.06561744
6	0xbab5b540	-0.0013863221
7	0x3d30d5c6	0.04317262
8	0xbd6794c1	-0.056538347
9	0x3d6783da	0.056522228
10	0x3d77e53a	0.06052134
11	0xbc968f5a	-0.018378902
12	0xbc4cbe30	-0.012496516
13	0x3ce3d86c	0.027813159
14	0xbb67e0e0	-0.0035381839
15	0xbd13aaca	-0.03605155
16	0xbcfcd5c4	-0.03086365
17	0x3cdeb194	0.027184285
18	0xbc02c9d0	-0.007982686
19	0xbca48010	-0.020080596
20	0x3cb9a77c	0.02266287
21	0xbc4d45bc	-0.012528833
22	0xbd740ead	-0.05958431
23	0xbd76f120	-0.06028855
24	0x3c1010b8	0.008793049
25	0x3d442db2	0.04789514
26	0x3c9859e8	0.018597558
27	0x3d4ec3f2	0.050479837
28	0x3d27d918	0.04097852
29	0xbd737383	-0.059436332
30	0xbd34d853	-0.044151615
31	0xbcc98310	-0.024598628
32	0xbce12662	-0.027484123
33	0xbcaf5504	-0.021402843
34	0xbd1ccd49	-0.038281713
35	0x3d7adc66	0.061245345
36	0x3d3a20ba	0.045441367
37	0x3bf16290	0.007366486
38	0xbd80a361	-0.06281162
39	0xbd0103c4	-0.03149773
40	0xbc6b47d0	-0.014360383
41	0xbd4ad211	-0.04951674
42	0xbd73e656	-0.059545837
43	0xbd21eec4	-0.039534345
44	0x3c89bbfc	0.01681327
45	0x3ce8a64c	0.028399609
46	0xbd2661b4	-0.04062052
47	0xbd781479	-0.0605664
48	0x3d5eda92	0.054407664
49	0xbc17e8dc	-0.009271827
50	0x3d059f1e	0.03262245
51	0xbc070e7c	-0.008243199
52	0x3d2589b4	0.040414527
53	0xbd0c932d	-0.034320045
54	0xbd804b0b	-0.06264313
55	0xbd09dc3e	-0.033657305
56	0x3d4bb6fe	0.04973506
57	0xbcc8f75c	-0.024532013
58	0xbcc4d6a0	-0.024028122
59	0xbd073d4b	-0.033017438
60	0x3c49c728	0.012315549
61	0x3d1e6ce8	0.03867808
62	0xbd55bd1c	-0.052182302
63	0xbbb00ba0	-0.0053724796
64	0x3d608a92	0.05481965
65	0x3d5da62a	0.054113545
66	0xbc360150	-0.011108711
67	0x3bca4df0	0.0061738417
68	0xbd8cf615	-0.06882874
69	0x3d57a9ca	0.052652158
70	0x3d064138	0.03277704
71	0xbd6128a2	-0.05497039
72	0x3d031936	0.032006465
73	0x3d8e343d	0.069435574
74	0xbce84d5c	-0.0283572
75	0xbbd77460	-0.0065751523
76	0x3c81cfec	0.015846215
77	0x3ccc1f20	0.024917185
78	0xbd3878e6	-0.045037173
79	0xbd39b7d9	-0.045341346
80	0x3bdfd8f0	0.006831281
81	0xbd1c8900	-0.03821659
82	0xbd0380a6	-0.03210511
83	0xbd70d7e5	-0.058799643
84	0xbbf8e930	-0.0075961575
85	0xbcf3a62c	-0.029742323
86	0xbd13956d	-0.036031175
87	0xbd830539	-0.063974805
88	0xbd18c493	-0.037296843
89	0x3ab6c2c0	0.0013943538
90	0xbd24e4c6	-0.040257238
91	0x3cc89d6c	0.024489127
92	0x3d6d1cf6	0.057888947
93	0xbd68d8ac	-0.05684726
94	0xbcd20cce	-0.025640871
95	0x3c5310b8	0.012882404
96	0x3cec28e4	0.028828092
97	0xbd8d5941	-0.069017895
98	0x3d602e0e	0.05473142
99	0x3c5d6448	0.013512678

en3.weight f4 [50, 100]
0	0x3dc86b79	0.09786124
1	0xbdccccc0	-0.099999905
2	0xbd2856cd	-0.041098405
3	0x3cd6f694	0.026240624
4	0x3d73e5be	0.05954527
5	0xbc75d300	-0.01500392
6	0xbd949823	-0.0725558
7	0xbc360c18	-0.011111282
8	0x3c845994	0.016155995
9	0x3d27b0a6	0.04093995
10	0xbc9d0acc	-0.019170187
11	0xbdc41d5b	-0.095759116
12	0x3d2a14ea	0.04152385
13	0xbdb3398b	-0.0875121
14	0xbd5633cd	-0.052295495
15	0x3d1fe6da	0.039038517
16	0xbdc99063	-0.09841993
17	0xbdbbc498	-0.09168357
18	0xbd6af310	-0.05736071
19	0xbd165206	-0.036699317
20	0x3d4831f6	0.04887577
21	0xbbfe2060	-0.0077553242
22	0xbbdd5950	-0.0067550316
23	0xbc82afec	-0.015953027
24	0x3c375990	0.011190787
25	0xbd5727fa	-0.05252836
26	0xbdb4eb27	-0.08833914
27	0x3d3d5246	0.04622104
28	0xbd5fb52d	-0.054616142
29	0x3da06ecd	0.078336336
30	0xbd9451c2	-0.072421566
31	0xbd8977ca	-0.06712301
32	0x3c482c90	0.012217656
33	0x3d6f08ba	0.05835793
34	0x3ca31638	0.019908056
35	0x3d97fe17	0.07421511
36	0xbd8015de	-0.06254171
37	0x3d6c6446	0.057712816
38	0x3d89240d	0.06696329
39	0xbda3430e	-0.07971774
40	0x3cad0cf4	0.02112434
41	0xbd363347	-0.044482496
42	0x3dc7b853	0.09751954
43	0xbd695e9d	-0.056974996
44	0xbd8f736d	-0.070044376
45	0x3d8afec1	0.06786872
46	0xbbd02da0	-0.006353095
47	0xbd8b30b5	-0.067963995
48	0x3daecf9f	0.08535694
49	0xbdc5c425	-0.09656552
50	0x3d1e5412	0.038654394
51	0x3d9440bf	0.07238912
52	0x3c2c2ba8	0.010508455
53	0x3d12bcea	0.035824694
54	0xbda039ee	-0.07823549
55	0x3d9650b1	0.073396094
56	0xbc307a90	-0.010771409
57	0xbcea4dd8	-0.028601572
58	0x3db8229b	0.089909755
59	0x3dbee7eb	0.093215786
60	0x3cf27bac	0.029599987
61	0xbc7020e8	-0.014656283
62	0x3d2b6b62	0.041850455
63	0x3c1df4d0	0.009640887
64	0xbbc9adb0	-0.0061547384
65	0xbd755440	-0.0598948
66	0xbd065b1a	-0.032801725
67	0x3d90c4a9	0.0706876
68	0xbd2d7703	-0.042349827
69	0xbd79f93d	-0.061028708
70	0x3c2a8c28	0.010409392
71	0x3c58bc58	0.013228498
72	0x3d9d840f	0.07691204
73	0xbd946983	-0.07246687
74	0x3c0d4bc0	0.008624017
75	0x3d4da6b2	0.0502078
76	0x3d9eb691	0.077496655
77	0x3c0372c0	0.008022964
78	0xbcf68980	-0.030094862
79	0xbcbccbf4	-0.023046471
80	0xbd21c933	-0.03949852
81	0x3d4a7366	0.04942646
82	0xbbdcf0a0	-0.006742552
83	0xbd6c1177	-0.057633843
84	0x3d8ab2c3	0.06772377
85	0xbd09f0fc	-0.033677086
86	0x3c2b5698	0.010457657
87	0x3d408736	0.047003947
88	0xbc4e0328	-0.012573995
89	0x3b5fc460	0.0034144148
90	0xbd964b1a	-0.07338543
91	0x3d87b8eb	0.06627067
92	0xbdc19627	-0.094524674
93	0xbd8e2540	-0.069406986
94	0xbd4ff167	-0.05076733
95	0x3c892294	0.016740121
96	0x3d0e80de	0.034790866
97	0xbd8ba9d0	-0.068194985
98	0x3ce0cec4	0.027442344
99	0x3d992d7f	0.07479381
100	0xbd16a984	-0.036782756
101	0x3db2e051	0.08734191
102	0x3dca6669	0.098828144
103	0x3c9f6b00	0.019460201
104	0xbd9a301b	-0.07528707
105	0xbb866eb0	-0.0041025504
106	0xbd5f8a30	-0.054575145
107	0x3d01d4b2	0.031696983
108	0xbd9084a8	-0.07056552
109	0xbdc7e023	-0.097595476
110	0x3ce5a76c	0.028033935
111	0x3d85f5c3	0.06541016
112	0x3d8c3a0d	0.0684701
113	0xbd873fe0	-0.0660398
114	0xbd48b497	-0.04900035
115	0x3c8c1968	0.017101958
116	0xbdae7f20	-0.08520341
117	0x3d8c037f	0.06836604
118	0xbcb35ff8	-0.021896347
119	0xbd5d86f0	-0.054083765
120	0x3dc19cf9	0.09453768
121	0x3d744576	0.059636556
122	0x3da3fbc3	0.08007004
123	0xbc57a728	-0.013162412
124	0x3b6b4100	0.0035896897
125	0xbd1a7d33	-0.037717056
126	0xbcd54518	-0.026033923
127	0xbb8e7080	-0.004346907
128	0xbdb33afa	-0.08751483
129	0x3be42e20	0.0069635063
130	0xbd9ab156	-0.075533554
131	0xbd4597ca	-0.04824046
132	0xbd7d8c6a	-0.061901487
133	0x3d37ae42	0.04484392
134	0xbd803ec2	-0.0626197
135	0x3d8ddb09	0.06926543
136	0x3d45249a	0.04813061
137	0xbd846b0a	-0.064657286
138	0xbcd370ac	-0.025810562
139	0xbd91af2d	-0.0711349
140	0xbcfffcc8	-0.031248465
141	0xbcaa5a8c	-0.02079513
142	0xbd6d7180	-0.05796957
143	0x3d8e6411	0.0695268
144	0x3d79a806	0.060951255
145	0xbd90e66d	-0.070752
146	0x3d88c3cb	0.066779695
147	0x3cbeaeac	0.02327665
148	0x3cd0be74	0.02548144
149	0xbd57f4b0	-0.052723587
150	0xbd13398a	-0.035943545
151	0x3c70b2d8	0.014691077
152	0xbb8e3dd0	-0.0043408647
153	0xbdb39ce2	-0.087701574
154	0xbd542e5a	-0.051802017
155	0x3d62105a	0.055191375
156	0xbd7b01e3	-0.061281096
157	0x3cb74294	0.022370614
158	0xbda0e446	-0.0785604
159	0xbd0488ba	-0.032356955
160	0xbda840a0	-0.08215451
161	0x3d648a5a	0.055796005
162	0x3dba24f9	0.09089083
163	0x3d043d9e	0.032285325
164	0xbdbcd668	-0.09220582
165	0x3db60eff	0.08889579
166	0x3cead184	0.028664358
167	0xbdb3f192	-0.0878631
168	0xbd30cc43	-0.04316355
169	0x3c2c6140	0.010521233
170	0xbc2884d0	-0.010285571
171	0x3dcb2e97	0.09920996
172	0x3d892e11	0.066982396
173	0xbc8d1454	-0.017221607
174	0xbc976694	-0.01848153
175	0x3daaae61	0.083340414
176	0xbda9b352	-0.08286156
177	0xbd89def2	-0.067319766
178	0x3ad14580	0.0015966147
179	0x3d99dd0d	0.07512865
180	0x3cdd7a0c	0.027035736
181	0x3d991d9f	0.07476353
182	0x3b1ea160	0.0024205074
183	0x3da42ebd	0.08016727
184	0x3a96d400	0.0011507273
185	0xbdbc19c5	-0.09184603
186	0xbd623843	-0.055229437
187	0x3dcb13f1	0.09915913
188	0xbda5d728	-0.080976784
189	0x3d4596c6	0.048239492
190	0x3d8585af	0.06519639
191	0xbd98187a	-0.074265435
192	0xbc43d170	-0.011951789
193	0x3d82d2c3	0.06387856
194	0x3c26d4e8	0.010182597
195	0xbd874df6	-0.06606667
196	0xbb939880	-0.0045042634
197	0xbd2837d3	-0.041068863
198	0x3cac4dc0	0.021033168
199	0xbdb67a80	-0.08910084
200	0xbdb05ae2	-0.086110845
201	0xbcf43a40	-0.029812932
202	0xbd9669de	-0.07344411
203	0x3dcc3571	0.09971131
204	0x3db6e771	0.08930863
205	0x3cfd1964	0.030895896
206	0xbd7837e3	-0.060600173
207	0xbdbe3b45	-0.092886485
208	0xbda0bd45	-0.078486
209	0x3dbc5a61	0.09196926
210	0x3d4da5fa	0.050207116
211	0xbdb4feeb	-0.08837684
212	0x3d0e9e9a	0.034819223
213	0xbd996433	-0.074898146
214	0x3da21fe7	0.07916241
215	0xbda3311a	-0.0796835
216	0xbdc1e97d	-0.094683625
217	0x3d83730b	0.06418427
218	0xbd88010c	-0.06640825
219	0x3da879bd	0.08226345
220	0x3b8d0c00	0.004304409
221	0x3d8d02e3	0.06885316
222	0x3d98a8f1	0.07454098
223	0x3d9452a9	0.07242329
224	0xbd558c17	-0.052135553
225	0xbd83b43c	-0.06430861
226	0x3d3d62ca	0.04623679
227	0x3dc06d89	0.09395892
228	0x3d2773e2	0.040882
229	0x3da55843	0.08073475
230	0xbd9992ae	-0.0749868
231	0xbd928b48	-0.07155472
232	0x3d4bb46e	0.049732618
233	0xbd620bd7	-0.055187073
234	0x3dc6bf51	0.097044595
235	0x3d39bd5a	0.045346595
236	0xbce409e8	-0.027836755
237	0x3dad6451	0.084663995
238	0xbdbc88d0	-0.092057824
239	0xbd2e7040	-0.04258752
240	0x3d0ca90a	0.034340896
241	0x3d13d2c2	0.036089666
242	0xbd547640	-0.051870584
243	0xbd053924	-0.032525197
244	0xbcaf2218	-0.021378562
245	0xbb828200	-0.0039827824
246	0x3daf6d89	0.08565814
247	0xbd564f3d	-0.05232166
248	0xbdbf9cda	-0.09356089
249	0x3dc77837	0.09739726
250	0x3d0c7402	0.03429032
251	0x3b6a22a0	0.0035726205
252	0x3cd34ccc	0.025793456
253	0x3bd468b0	0.0064822063
254	0xbd804d98	-0.062648
255	0x3d9f21e1	0.07770134

en3.bias f4 [50]
0	0x3d31935a	0.043353416
1	0xbd1e87b0	-0.03870362
2	0x3d5b077e	0.053473942
3	0x3d587672	0.052847333
4	0xbd0154c4	-0.03157498
5	0xbb9caa60	-0.0047810525
6	0x3d985d29	0.07439644
7	0x3dcc9a95	0.09990422
8	0x3d28e1b6	0.04123088
9	0xbd870f08	-0.06594664
10	0x3d496fda	0.049178936
11	0x3d8a3401	0.067482
12	0x3d10417e	0.03521871
13	0x3bd7d680	0.0065868497
14	0x3db67f69	0.0891102
15	0xbc023200	-0.007946491
16	0x3b006e00	0.0019596815
17	0xbd4d86f3	-0.050177526
18	0x3db4a4cd	0.08820496
19	0xbca3dfb8	-0.020004138
20	0x3db979f1	0.090564616
21	0xbd6f570d	-0.058432627
22	0x3da15fe9	0.078796215
23	0x3da62639	0.08112759
24	0xbd659490	-0.056049883
25	0xbd4e2627	-0.050329354
26	0x3bc8fa80	0.0061333776
27	0x3d1af2e6	0.037829302
28	0xbdc58185	-0.096438445
29	0xbd5f55aa	-0.054525055
30	0x3d8d061f	0.06885933
31	0xbd7d929d	-0.0619074
32	0x3ce44b64	0.02786798
33	0xbdb472e7	-0.088109784
34	0xbdc0e720	-0.094190836
35	0xbc7e1398	-0.015507601
36	0xbdbec01f	-0.09313988
37	0xbc8fe294	-0.017564096
38	0xbc419d28	-0.011817254
39	0xbc62df68	-0.0138472095
40	0x3bebfb30	0.0072015747
41	0x3be04850	0.006844558
42	0x3d88da81	0.06682301
43	0xbd9a7fcd	-0.07543907
44	0x3d87ce61	0.066311605
45	0x3d0422d2	0.03225977
46	0xbdc08fb7	-0.094024114
47	0xbda87f6d	-0.082274295
48	0x3d5e4d32	0.054272838
49	0xbd0ee466	-0.034885786

en4.weight f4 [3, 50]
0	0xbd953f3e	-0.07287453
1	0x3dc98ff0	0.09841907
2	0xbe03e3c3	-0.12879853
3	0x3e0df8f9	0.13864507
4	0xbd2cca14	-0.042184904
5	0x3dd172c0	0.10226965
6	0xbc91b72c	-0.017787538
7	0x3e0f5307	0.13996516
8	0xbdc0a5e8	-0.09406644
9	0xbd608d74	-0.0548224
10	0x3de7c1b2	0.11316241
11	0x3d411a64	0.04714431
12	0xbdaa28be	-0.08308552
13	0xbbe171a0	-0.0068800002
14	0xbdb6ce06	-0.089260146
15	0xbde953dc	-0.11392948
16	0xbd8cf0de	-0.06881879
17	0xbe0b618f	-0.13611434
18	0xbdfcd2aa	-0.123448685
19	0xbde4c94c	-0.11171207
20	0x3e0a8df7	0.13530718
21	0x3da88b28	0.08229667
22	0xbd83771a	-0.06419201
23	0x3db73dc2	0.08947326
24	0xbe0156cb	-0.12630765
25	0xbdc4f4a8	-0.09616977
26	0x3df2472e	0.11829983
27	0xbacce500	-0.0015632212
28	0x3cfb3ae0	0.030667722
29	0xbddef6d4	-0.108869225
30	0x3df346fe	0.11878775
31	0x3ca00770	0.019534796
32	0x3de3e8de	0.111284
33	0x3ccbab18	0.024861857
34	0xbe0c2289	-0.13685049
35	0x3dfe797e	0.124255165
36	0xbdb3918c	-0.08767995
37	0xbd4477ae	-0.047965698
38	0x3dfaef16	0.12252633
39	0xbda53e64	-0.08068541
40	0x3dbe85de	0.09302877
41	0xbd3fe1c6	-0.046846174
42	0xbd87d28e	-0.06631957
43	0xbbe58ce0	-0.007005319
44	0xbddc14f8	-0.10746187
45	0x3d83a96e	0.064288005
46	0xbe0e3cf0	-0.13890433
47	0xbdd4f205	-0.10397724
48	0xbdf3b8c6	-0.11900477
49	0xbd9ed168	-0.07754785
50	0x3dd283f0	0.10279071
51	0x3dcf0900	0.101091385
52	0xbd8b08f9	-0.06788821
53	0x3de36efa	0.111051515
54	0xbc9696a8	-0.018382385
55	0xbd8d87f1	-0.069106944
56	0x3ce973a8	0.028497532
57	0xbd47eca8	-0.048809677
58	0x3c8aec70	0.016958445
59	0xbce1327c	-0.027489893
60	0x3d21f248	0.039537698
61	0x3d6c1324	0.05763544
62	0x3dfd3476	0.12363522
63	0xbcfebf44	-0.031097062
64	0xbdfbc2aa	-0.122929886
65	0xbd4edc2a	-0.050502934
66	0xbe0bf228	-0.13666594
67	0xbded90a2	-0.11599852
68	0x3d1804a0	0.037113786
69	0xbde4e3c0	-0.11176252
70	0xbdbda918	-0.09260768
71	0x3dcd77de	0.100326285
72	0xbce1a7b0	-0.02754578
73	0x3dd8af68	0.10580331
74	0x3da18ee6	0.07888584
75	0x3b899a60	0.004199311
76	0x3d898604	0.067150146
77	0xbd569c2a	-0.052395023
78	0x3d29db44	0.041468874
79	0xbdc16d34	-0.09444657
80	0xbd0ee072	-0.034882016
81	0xbd8edfda	-0.0697629
82	0xbe022b43	-0.12711816
83	0xbdea19f4	-0.114307314
84	0x3ddb8912	0.107195035
85	0xbe0351e4	-0.12824208
86	0xbdfe6178	-0.124209344
87	0xbd2a5786	-0.041587375
88	0xbdf2785d	-0.11839364
89	0xbdc3ec7e	-0.09566592
90	0xbe01022c	-0.12598485
91	0xbdb54004	-0.08850101
92	0x3c754a10	0.014971271
93	0xbddc8aed	-0.107686855
94	0xba3d2f00	-0.00072167814
95	0x3d22fd10	0.03979212
96	0xbd167f90	-0.036742747
97	0x3c0d9190	0.008640662
98	0x3d6201c0	0.05517745
99	0xbd17c8f4	-0.03705688
100	0x3cdbf6e0	0.026851118
101	0xbdc5a442	-0.0965047
102	0xbd4272a8	-0.047472626
103	0xbe0eac14	-0.1393283
104	0xbdb25fcf	-0.0870968
105	0xbd33f5a8	-0.043935448
106	0x3ce9c9a0	0.028538525
107	0xbd939d75	-0.07207767
108	0x3d447f90	0.047973216
109	0xbb8a9880	-0.004229605
110	0xbd4ea1c2	-0.050447233
111	0xbde93cde	-0.113885626
112	0x3d2f5548	0.04280594
113	0xbd520ab8	-0.051279753
114	0x3cab7088	0.020927683
115	0xbdf1069a	-0.11768837
116	0xbd9192ad	-0.07108054
117	0xbd56fe42	-0.052488573
118	0x3dd8365c	0.10557243
119	0x3d871584	0.06595901
120	0xbdd8bb76	-0.1058263
121	0xbd4e4e0e	-0.050367408
122	0xbd6004c8	-0.05469206
123	0xbb7b1cc0	-0.0038316697
124	0xbe0f0b15	-0.13969071
125	0xbe098fa0	-0.13433695
126	0xbc604c10	-0.01369001
127	0xbdac10a7	-0.08401614
128	0xbb312240	-0.0027028471
129	0xbd72f40a	-0.059314765
130	0x3c720aa0	0.014773041
131	0x3c91fb20	0.017819941
132	0xbcc7e5d8	-0.02440159
133	0xbccbadf4	-0.02486322
134	0x3da3ec08	0.08004004
135	0x3d12545c	0.035724983
136	0x3cd79630	0.026316732
137	0x3c15efa0	0.009151369
138	0xbdca109e	-0.09866451
139	0xbdc04406	-0.093879744
140	0x3c2ef2c0	0.010677993
141	0xbd9cbf62	-0.07653691
142	0x3dfa49da	0.12221117
143	0x3db0a354	0.08624902
144	0x3dd37a1c	0.10326025
145	0x3c49f320	0.012326032
146	0x3df904d6	0.121591255
147	0x3a0dda00	0.00054112077
148	0xba16cf00	-0.00057528913
149	0xbdc4cef8	-0.09609789

en4.bias f4 [3]
0	0x3d0a416c	0.033753797
1	0xbded992b	-0.1160148
2	0xbdeec184	-0.11658004

de1.weight f4 [50, 3]
0	0xbd9b6340	-0.0758729
1	0x3d6bc0b0	0.057556808
2	0x3ec24ce2	0.37949282
3	0xbcfdc420	-0.030977309
4	0x3eb90ed6	0.3614413
5	0x3f0f9674	0.5608895
6	0xbe459604	-0.19295508
7	0xbef4405a	-0.47705346
8	0x3ee626ac	0.4495138
9	0x3eb1266c	0.34599626
10	0x3ea3485e	0.3189115
11	0x3ec1e3f8	0.3786924
12	0xbeb93228	-0.3617108
13	0xbf04a79b	-0.51818246
14	0x3e457b94	0.19285423
15	0xbe3eb48a	-0.18623558
16	0xbe81b48b	-0.25333056
17	0xbf050779	-0.5196453
18	0xbef617e7	-0.4806511
19	0x3b872f80	0.0041255355
20	0xbe90e4c3	-0.2829953
21	0xbf005b54	-0.50139356
22	0xbecbe7ba	-0.3982523
23	0x3e98bee2	0.29833132
24	0xbd17aa60	-0.037027717
25	0xbf0f980e	-0.5609139
26	0x3e3b3144	0.18280512
27	0xbe665d50	-0.22496533
28	0xbf0796b5	-0.52964336
29	0xbee4cc97	-0.4468734
30	0xbeb7fb68	-0.35933995
31	0x3f0e207e	0.5551833
32	0xbd7ab5f0	-0.061208665
33	0xbe39544c	-0.18098563
34	0xbe226660	-0.15859365
35	0xbe939c7c	-0.28830326
36	0x3e828c3c	0.25497615
37	0xbf107265	-0.5642455
38	0xbee571e0	-0.44813442
39	0xbefcc6f1	-0.4937053
40	0x3ef4a160	0.4777937
41	0xbe94f1ca	-0.2909072
42	0xbd985b88	-0.07439333
43	0x3eaa1442	0.3321858
44	0xbc45d640	-0.012075007
45	0xbe435674	-0.19075948
46	0x3e8db262	0.27675158
47	0x3e872c42	0.26400954
48	0x3cf97c80	0.030454874
49	0x3e88fb84	0.2675439
50	0x3da219b0	0.07915056
51	0xbf0b34d7	-0.543775
52	0x3e4e7d9c	0.20165104
53	0xbe8925ca	-0.26786643
54	0xbe356144	-0.17712885
55	0xbe0607ba	-0.13088885
56	0xbe3d1064	-0.18463284
57	0x3f080da4	0.53145814
58	0x3eedc020	0.46435642
59	0x3ef17c28	0.47165036
60	0xbe6abe02	-0.22924045
61	0x3ebb7b8e	0.36617702
62	0x3f05226a	0.52005637
63	0x3ef4da14	0.4782263
64	0x3f1097a8	0.5648141
65	0x3e44cda8	0.19219077
66	0x3ea46e60	0.3211546
67	0xbf02732d	-0.50956994
68	0x3de98e48	0.11404091
69	0x3de3dcb8	0.11126083
70	0xbbba5b00	-0.0056871176
71	0x3e9b3770	0.30315733
72	0x3f0e0376	0.5547403
73	0x3e4d6e98	0.2006172
74	0x3e169c7c	0.14708132
75	0x3e845008	0.2584231
76	0xbf068144	-0.52540994
77	0x3d9c0620	0.07618356
78	0x3efaa514	0.4895407
79	0x3ef07f80	0.46972275
80	0x3edbbea4	0.42918885
81	0x3eab8aa2	0.33504206
82	0x3e2cfa68	0.16892397
83	0x3f0c9ee4	0.5492995
84	0x3db41dc8	0.08794743
85	0x3eab7cec	0.33493745
86	0xbec0cfc0	-0.376585
87	0x3edd19f8	0.43183875
88	0xbec85577	-0.39127705
89	0xbe2f5486	-0.17122087
90	0x3e766c48	0.24064744
91	0xbcf54c60	-0.029943645
92	0xbdc29898	-0.09501761
93	0xbf10a58a	-0.5650259
94	0x3f0754f8	0.5286403
95	0xbeb20530	-0.34769583
96	0xbe939182	-0.2882195
97	0xbec818e3	-0.39081487
98	0xbeed2feb	-0.4632562
99	0xbd98e1e0	-0.07464957
100	0xbe081f74	-0.13293248
101	0xbe8e12ee	-0.27748817
102	0xbeb4b180	-0.35291672
103	0x3ef4853c	0.477579
104	0x3daf0b80	0.08547115
105	0x3e354664	0.17702633
106	0xbec9aa23	-0.39387617
107	0x3b594b00	0.0033156276
108	0xbe577752	-0.21041611
109	0x3f04e148	0.5190625
110	0x3ed2b872	0.41156346
111	0x3ee78d94	0.45225203
112	0xbe9788e3	-0.29596624
113	0x3f004ef6	0.50120485
114	0xbe9353c0	-0.28774834
115	0xbf13cd34	-0.5773499
116	0x3dcba148	0.09942871
117	0x3ece50b6	0.40295953
118	0x3ece144c	0.4024986
119	0x3ec3c46c	0.38235795
120	0x3ee1e348	0.44118714
121	0xba424000	-0.00074100494
122	0x3ecd8e5a	0.40147668
123	0xbe6769e0	-0.22598982
124	0xbf0e3179	-0.5554424
125	0xbd430950	-0.047616303
126	0xbe592148	-0.21204102
127	0xbdf61294	-0.12015262
128	0x3dadf228	0.08493453
129	0x3e5b31f0	0.21405768
130	0xbea50848	-0.3223288
131	0x3cbb3e60	0.022856891
132	0x3e344f74	0.17608434
133	0xbebceece	-0.36900944
134	0x3e9f34f8	0.310951
135	0xbde2a6d4	-0.11066976
136	0xbe0f9b32	-0.14024046
137	0x3f04e4da	0.519117
138	0x3e95e500	0.29276276
139	0xbe4755c6	-0.19466314
140	0x3ed33e14	0.412583
141	0xbf109fc8	-0.56493807
142	0xbd1772d0	-0.036974728
143	0xbee0f904	-0.43939984
144	0xbd6e18f0	-0.05812925
145	0x3ed1e19a	0.40992433
146	0xbed0c7e2	-0.40777498
147	0x3e8151de	0.25257772
148	0x3ee1854c	0.4404701
149	0xbe4dda62	-0.20102838

de1.bias f4 [50]
0	0x3ee27814	0.44232237
1	0x3e89b2b2	0.26894146
2	0xbe5e9d52	-0.217397
3	0x3c7cd380	0.015431285
4	0xbeaacd2c	-0.3335966
5	0x3e0f4eb0	0.1399486
6	0xbce7b700	-0.028285503
7	0xbdfd4800	-0.123672485
8	0xbe96ac0d	-0.2942814
9	0xbe1525de	-0.14565226
10	0x3daa6990	0.08320916
11	0xbf0560f9	-0.52101094
12	0x3f0ac5cc	0.54208064
13	0xbeaf8cc1	-0.34287074
14	0xbe9c4495	-0.30521074
15	0xbd31a250	-0.043367684
16	0xbd654800	-0.055976868
17	0xbdbd6f84	-0.092497855
18	0xbf1033f0	-0.5632925
19	0xbe867a0b	-0.26264986
20	0x3e7f147c	0.24910158
21	0x3c78e000	0.0151901245
22	0x3c89dfc0	0.016830325
23	0xbdc2c804	-0.09510806
24	0xbe86d02b	-0.26330695
25	0xbe668c14	-0.22514373
26	0x3ea743c0	0.32668877
27	0x3d0d5bf0	0.034511507
28	0xbeb424a0	-0.35184193
29	0x3f06b7e6	0.52624357
30	0x3efa76f4	0.4891888
31	0x3e13b3bc	0.14424032
32	0x3f09c81a	0.53820956
33	0x3cdf9b80	0.027295828
34	0xbe990527	-0.29886743
35	0xbf039598	-0.51400137
36	0x3e2bc610	0.16774774
37	0x3ea4e6a4	0.32207215
38	0x3e8393fc	0.2569884
39	0xbe2c1f60	-0.16808844
40	0x3ec0a5d4	0.37626517
41	0x3f028e2c	0.5099819
42	0x3e4f68c0	0.20254803
43	0x3ecd35ea	0.40080196
44	0x3d0879a0	0.033319116
45	0xbe896b12	-0.268395
46	0xbe82f2e1	-0.25575927
47	0x3eeff65c	0.46867645
48	0x3eeaaa24	0.45832932
49	0x3e46d2e4	0.19416386

de2.weight f4 [100, 50]
0	0xbe04816b	-0.12939994
1	0xbdc19ed6	-0.09454124
2	0x3e009011	0.12554957
3	0xbd2a118a	-0.041520633
4	0xbc703620	-0.014661342
5	0xbd3b1c5a	-0.045681335
6	0x3ce00700	0.027347088
7	0xbdeb53ce	-0.11490594
8	0xbde0056e	-0.10938536
9	0x3d9e0a74	0.077168375
10	0xbdd8444e	-0.10559903
11	0xbdb57d00	-0.088617325
12	0x3d4c127c	0.049822316
13	0x3e0c59a9	0.13706078
14	0xbdfae23b	-0.12250181
15	0x3c0e8680	0.0086990595
16	0x3d1884c8	0.037236005
17	0xbdd9d018	-0.10635394
18	0xbd8fc8cc	-0.07020721
19	0xbdfe3114	-0.12411705
20	0xbd62b30c	-0.055346534
21	0x3d85d536	0.065348074
22	0x3dddd30a	0.10831268
23	0x3df0cd0a	0.11757858
24	0xbe050d63	-0.12993388
25	0xbe087191	-0.13324572
26	0xbd2e7af2	-0.04259772
27	0xbc414650	-0.011796549
28	0x3d84319c	0.06454775
29	0xbdccfaf6	-0.100088045
30	0xbe0b2356	-0.13587698
31	0x3d68f554	0.056874588
32	0x3d7ce160	0.06173837
33	0x3d769edc	0.060210094
34	0x3daa71cc	0.08322486
35	0x3ada7c80	0.0016669184
36	0xbd23845e	-0.039921157
37	0xbd5119f8	-0.051050156
38	0x3d25ec88	0.040508777
39	0x3e05049f	0.12990044
40	0xbdb71b5c	-0.08940765
41	0xbda9f718	-0.082990825
42	0x3e0b9c93	0.13633947
43	0xbdc60240	-0.09668398
44	0x3c294240	0.010330737
45	0x3dbba2e8	0.09161931
46	0xbde4d0ad	-0.11172614
47	0x3def19ba	0.11674829
48	0xbd9d3a03	-0.076770805
49	0xbe017ef4	-0.12646085
50	0x3d97bfde	0.07409643
51	0xbdd1ae78	-0.102383554
52	0xbe0dd1a0	-0.13849497
53	0xbcae7b4c	-0.021299027
54	0x3d43fc78	0.047848195
55	0x3de6884a	0.11256464
56	0xbd9b65ae	-0.07587753
57	0xbe0b4669	-0.13601078
58	0xbdc3204a	-0.09527643
59	0xbdb31942	-0.08745052
60	0xbbf0a3c0	-0.0073437393
61	0xbdd6b2c4	-0.104833156
62	0xbd6a5176	-0.057206593
63	0x3d12e8a4	0.035866395
64	0xbde69e56	-0.11260669
65	0x3ddc029a	0.10742684
66	0x3d98621e	0.07440589
67	0x3e07aa79	0.13248624
68	0xbd9b5bec	-0.07585892
69	0xbd26aa50	-0.040689766
70	0xbdcde129	-0.100527115
71	0xbd40b2e2	-0.047045596
72	0x3c6f5560	0.014607757
73	0x3dc0e5a4	0.094188005
74	0x3d644478	0.05572936
75	0xbdd83cd9	-0.10558481
76	0x3c8aab70	0.01692745
77	0x3dba93e4	0.09110239
78	0x3d2b9838	0.041893214
79	0x3c069630	0.008214518
80	0x3dc7818c	0.09741506
81	0xbdfa9ad4	-0.12236562
82	0x3b52fbc0	0.0032193512
83	0xbd9cb2ca	-0.07651289
84	0xbe098eac	-0.13433331
85	0xbce4b068	-0.027916148
86	0xbdf80d9f	-0.12111973
87	0xbdf9a944	-0.12190488
88	0xbc6b2670	-0.014352426
89	0xbc5ee930	-0.013605401
90	0x3d69f164	0.057114974
91	0x3e09ac97	0.13444744
92	0xbac0c900	-0.001470834
93	0x3de6b712	0.11265387
94	0x3e0ff8a1	0.14059688
95	0x3e04d5f3	0.1297224
96	0x3bf6df40	0.0075339377
97	0xbe05baf0	-0.13059592
98	0x3deb3b72	0.11485948
99	0x3be9c5e0	0.0071341842
100	0xbd9c6994	-0.07637325
101	0xbd709e7a	-0.058744885
102	0x3e02d3e9	0.1277615
103	0x3d18df58	0.037322372
104	0x3dba323a	0.09091611
105	0x3d75e888	0.060036212
106	0x3c0ab050	0.008464888
107	0x3e023ccb	0.12718503
108	0x3de08d8a	0.109644964
109	0xbcf14b8c	-0.029454969
110	0x3d021e78	0.03176734
111	0x3dc035f4	0.09385291
112	0x3d5188e0	0.051155925
113	0xbcf89f38	-0.030349359
114	0x3dbbda8a	0.091725424
115	0xbcc159dc	-0.023602419
116	0x3dc26112	0.09491171
117	0x3d304d44	0.043042436
118	0xbde07350	-0.10959494
119	0xbdd6e4f0	-0.10492885
120	0x3d3a0b4c	0.04542093
121	0xbe0cfb48	-0.13767731
122	0xbdefc6f4	-0.11707869
123	0x3bed4560	0.007240936
124	0x3d0d5b0c	0.034510657
125	0x3b556ec0	0.0032567233
126	0xbdcd187e	-0.10014437
127	0x3db5f2ae	0.08884178
128	0xbd8db9d4	-0.069202095
129	0x3d2d0e68	0.042250067
130	0x3d27b60c	0.040945098
131	0x3e03dab3	0.12876396
132	0x3d9bf1f2	0.07614507
133	0xbdcdffce	-0.100585565
134	0xbd9d5da9	-0.0768388
135	0x3ded5dc2	0.115901485
136	0xbdc3c006	-0.0955811
137	0x3e027693	0.12740545
138	0x3d1833bc	0.037158713
139	0xbd9c712b	-0.076387726
140	0x3d6f361c	0.058401212
141	0x3d36b9e4	0.044610873
142	0xbdf35cd7	-0.11882942
143	0x3d21bd48	0.039487153
144	0xbe05c765	-0.13064344
145	0x3db5794a	0.08861025
146	0xbda4eeb3	-0.08053341
147	0xbd6c5b2e	-0.057704143
148	0xbbcc3840	-0.0062322915
149	0xbc124c20	-0.008929282
150	0x3d1831cc	0.037156865
151	0xbd3c3b90	-0.04595524
152	0x3ca92690	0.02064827
153	0xbd19aa42	-0.037515886
154	0xbcbf5454	-0.02335564
155	0x3d69eafc	0.057108864
156	0xbcba2f58	-0.022727653
157	0x3b5d26c0	0.003374502
158	0x3cb9d740	0.022685647
159	0xbdc626a0	-0.09675336
160	0x3c91be30	0.017790884
161	0x3a743200	0.0009315312
162	0xbdec8194	-0.115481526
163	0xbe011e59	-0.12609233
164	0xbdccb802	-0.09996034
165	0xbde5a7e4	-0.11213663
166	0xbde51170	-0.111849666
167	0xbe065f19	-0.13122214
168	0x3d25cbb0	0.040477455
169	0xbe0f59ff	-0.13999175
170	0xbd9713fa	-0.07376857
171	0xbdab6c3c	-0.083702534
172	0xbc919930	-0.01777324
173	0xbc3189e0	-0.010836095
174	0xbda8c848	-0.082413256
175	0xbdb5a4b0	-0.08869302
176	0x3d119820	0.03554547
177	0x3d88642e	0.06659733
178	0xbdeb2add	-0.11482785
179	0xbcd8f7d0	-0.026485354
180	0xbce3a0d0	-0.027786642
181	0xbcca5bbc	-0.024701945
182	0xbd2846b8	-0.041083068
183	0x3df38c52	0.11891998
184	0xbd87640d	-0.0661088
185	0x3df34ade	0.11879514
186	0xbd90fbbc	-0.070792645
187	0xbc4ab520	-0.012372285
188	0x3da162a2	0.07880141
189	0xbd5243cc	-0.051334187
190	0x3ce9c398	0.02853565
191	0xbde79c56	-0.113091156
192	0x3e04669d	0.12929769
193	0x3dde2610	0.108471036
194	0xbb496f80	-0.0030736625
195	0x3d17b358	0.03703627
196	0xbc8dbc44	-0.017301686
197	0xbdfa0a69	-0.12209017
198	0x3df0120a	0.11722191
199	0x3c7e7780	0.015531421
200	0x3da8e85c	0.08247444
201	0xbd110160	-0.035401702
202	0xbcf6d48c	-0.030130647
203	0xbe02c04d	-0.1276867
204	0x3cd3b170	0.025841445
205	0xbd2a3266	-0.04155197
206	0xbd123b66	-0.035701178
207	0xbc7b6190	-0.015343085
208	0xbde016c3	-0.109418415
209	0xbd6f3024	-0.05839552
210	0xbbca0400	-0.0061650276
211	0xbd705550	-0.05867511
212	0x3d608078	0.054810017
213	0xbcf0719c	-0.029351048
214	0x3dcb9008	0.09939581
215	0xbda3b9e8	-0.07994443
216	0xbe017bec	-0.12644929
217	0x3d6bedd4	0.057599857
218	0x3d95e9f8	0.073200166
219	0x3dcc7378	0.099829614
220	0x3c2818b0	0.010259792
221	0x3dc2915e	0.09500383
222	0xbd8030a0	-0.062592745
223	0x3dccf89a	0.100083545
224	0xbd939095	-0.07205311
225	0xbe010182	-0.12598231
226	0x3d8b5d54	0.0680491
227	0xbdf766d5	-0.120801605
228	0x3e0b4111	0.1359904
229	0x3e051849	0.12997545
230	0xbd544cf8	-0.051831216
231	0xbdf5cd52	-0.12002052
232	0x3d8ef398	0.069800556
233	0xbe041b82	-0.12901118
234	0x3be109c0	0.0068676174
235	0xbdf74b71	-0.12074936
236	0xbd8bbb94	-0.06822887
237	0xbd2df7ba	-0.04247258
238	0x3db38eba	0.08767457
239	0xbd7b56be	-0.06136202
240	0xbd647180	-0.055772305
241	0xbe0c1e58	-0.1368345
242	0x38ac8800	8.226931e-05
243	0x3d09ee14	0.033674315
244	0x3c6a7e90	0.014312401
245	0xbe00ac6f	-0.12565778
246	0xbd243170	-0.04008621
247	0x3c657dd0	0.014007047
248	0x3c7618e0	0.015020579
249	0x3dec12ca	0.11527021
250	0xbe0d89d4	-0.13822109
251	0xbca67c44	-0.020322926
252	0xbd865fb4	-0.06561223
253	0xbd9c5d85	-0.07635025
254	0x3da234c0	0.079202175
255	0x3dbec9b2	0.09315814

de2.bias f4 [100]
0	0x3ba11420	0.004915729
1	0x3df4b44e	0.11948453
2	0xbd56676a	-0.052344717
3	0xbc83eff0	-0.016105622
4	0xbdd8c9bf	-0.10585355
5	0xb84a9000	-4.8294663e-05
6	0xbe0178a9	-0.12643684
7	0x3defdd3e	0.117121205
8	0x3deb0cb2	0.11477031
9	0x3cc3b7b0	0.0238913
10	0x3df27e66	0.11840515
11	0xbc625270	-0.0138136
12	0x3b82f320	0.003996268
13	0x3e02e947	0.127843
14	0xbcb273a8	-0.021783665
15	0x3d1606fc	0.036627755
16	0xbd9e1bbd	-0.077201344
17	0x3dec3a06	0.115345046
18	0xbdb81041	-0.08987475
19	0xbba48000	-0.0050201416
20	0x3b0e6740	0.0021729022
21	0xbcb7a28c	-0.022416376
22	0x3d45f068	0.048324972
23	0x3d9cbe72	0.07653512
24	0x3be39380	0.0069450736
25	0x3dc39446	0.09549765
26	0x3d325b9c	0.043544397
27	0x3e068af1	0.1313894
28	0xbda89ff4	-0.08233634
29	0x3d404974	0.04694505
30	0xbe07c99c	-0.13260502
31	0x3d24a63c	0.040197596
32	0x3e044acd	0.12919159
33	0xbdcc6d70	-0.09981811
34	0xbc7019d0	-0.014654592
35	0xbac2ed00	-0.0014871657
36	0x3d2f31ec	0.04277222
37	0xbda2fcfc	-0.07958409
38	0xbcef2e40	-0.029196858
39	0xbd5ad568	-0.053426176
40	0x3d801044	0.062531024
41	0xbdc91bf8	-0.09819788
42	0x3878b000	5.929172e-05
43	0xbdb04318	-0.08606547
44	0xbd5be5d6	-0.053685986
45	0x3c996180	0.01872325
46	0xbcdfe294	-0.02732972
47	0xbcd0239c	-0.025407605
48	0xbc8e189c	-0.017345719
49	0x3df615b2	0.12015857
50	0xbc182b40	-0.009287655
51	0x3d2fff94	0.042968348
52	0x3c9995c0	0.018748164
53	0x3df0538a	0.11734684
54	0xbd260a86	-0.04053738
55	0x3d86f594	0.06589809
56	0xbd70d12e	-0.05879324
57	0x3d210bdc	0.03931795
58	0xbb60b9c0	-0.0034290403
59	0xbd6a238e	-0.057162814
60	0xbc79be40	-0.015243113
61	0xbc151e20	-0.009101421
62	0x3df0ccba	0.117577985
63	0x3d44562c	0.047933742
64	0xbc0c49e0	-0.008562535
65	0xbd767e6c	-0.06017916
66	0xbc842278	-0.016129717
67	0xbccfb920	-0.02535683
68	0xbdda533a	-0.106604055
69	0xbdcc6234	-0.09979668
70	0xbd25e022	-0.040496953
71	0x3d5b8870	0.053596914
72	0x3d982002	0.0742798
73	0xbd6fed28	-0.05857578
74	0xbdcc5570	-0.099772334
75	0x3db2e2a8	0.087346375
76	0x3e0675ab	0.13130824
77	0xbe089c24	-0.13340813
78	0x3e0f59d5	0.13999112
79	0x3ddcf828	0.107895195
80	0xbdd10b17	-0.10207193
81	0xbcc82f9c	-0.024436764
82	0x3b3ae600	0.0028518438
83	0xbdf809d4	-0.121112496
84	0x3c4bb770	0.012433872
85	0xbdd28640	-0.102795124
86	0x3d0f67c0	0.035011053
87	0xbda12dc0	-0.07870054
88	0xbdb57b18	-0.08861369
89	0x3d903300	0.070409775
90	0x3db59676	0.08866589
91	0xbb726200	-0.0036984682
92	0xbd9ff794	-0.07810894
93	0x3dfe6f7a	0.12423606
94	0xbd9a4838	-0.07533306
95	0x3cc44b98	0.023961827
96	0x3de5baaa	0.11217244
97	0x3b896020	0.004192367
98	0x3d99caf0	0.075094104
99	0x3d263c3c	0.040584788
